…
Processing graphs: 100%|█████████▉| 20674/20708 [04:18<00:00, 72.53graph/s]
Processing graphs: 100%|█████████▉| 20682/20708 [04:18<00:00, 71.78graph/s]
Processing graphs: 100%|█████████▉| 20690/20708 [04:18<00:00, 73.44graph/s]
Processing graphs: 100%|█████████▉| 20698/20708 [04:18<00:00, 72.32graph/s]
Processing graphs: 100%|█████████▉| 20706/20708 [04:19<00:00, 73.79graph/s]
Processing graphs: 100%|██████████| 20708/20708 [04:19<00:00, 79.93graph/s]
processing graph data completed
training and testing

FOLD 0
TRAIN: 18637/20708
TEST: 2071/20708

Initialize model
GNN(
  (convs): ModuleList(
    (0): GraphSN(
      (mlp): Sequential(
        (0): Linear(in_features=1461, out_features=64, bias=True)
        (1): Dropout(p=0.25, inplace=False)
        (2): ReLU()
        (3): BatchNorm1d(30, eps=1e-05, momentum=0.1, affine=True, track_running_stats=True)
        (4): Linear(in_features=64, out_features=64, bias=True)
        (5): Dropout(p=0.25, inplace=False)
        (6): ReLU()
        (7): BatchNorm1d(30, eps=1e-05, momentum=0.1, affine=True, track_running_stats=True)
      )
      (linear): Linear(in_features=64, out_features=64, bias=True)
    )
    (1): GraphSN(
      (mlp): Sequential(
        (0): Linear(in_features=64, out_features=64, bias=True)
        (1): Dropout(p=0.25, inplace=False)
        (2): ReLU()
        (3): BatchNorm1d(30, eps=1e-05, momentum=0.1, affine=True, track_running_stats=True)
        (4): Linear(in_features=64, out_features=64, bias=True)
        (5): Dropout(p=0.25, inplace=False)
        (6): ReLU()
        (7): BatchNorm1d(30, eps=1e-05, momentum=0.1, affine=True, track_running_stats=True)
      )
      (linear): Linear(in_features=64, out_features=64, bias=True)
    )
  )
  (instance_projector): Sequential(
    (0): Linear(in_features=1589, out_features=1589, bias=True)
    (1): ReLU()
    (2): Linear(in_features=1589, out_features=1461, bias=True)
  )
  (cluster_projector): Sequential(
    (0): Linear(in_features=1589, out_features=1589, bias=True)
    (1): ReLU()
    (2): Linear(in_features=1589, out_features=21, bias=True)
    (3): Softmax(dim=1)
  )
  (out_proj): Linear(in_features=1589, out_features=21, bias=True)
)
N trainable parameters: 7557400
Train Epoch: 0 [128/18637 (0%)]	Instance Loss: 4.553795	Cluster Loss: 3.986990 	sec/iter: 1.3861
Train Epoch: 0 [1408/18637 (4%)]	Instance Loss: 4.535711	Cluster Loss: 9.565833 	sec/iter: 0.6731
Train Epoch: 0 [2688/18637 (7%)]	Instance Loss: 4.241041	Cluster Loss: 4.214105 	sec/iter: 0.6364
Train Epoch: 0 [3968/18637 (11%)]	Instance Loss: 3.990199	Cluster Loss: 3.381009 	sec/iter: 0.6327
…
