…
:23<00:00, 73.00graph/s]Processing graphs: 100%|█████████▉| 20677/20708 [04:23<00:00, 72.27graph/s]Processing graphs: 100%|█████████▉| 20685/20708 [04:23<00:00, 70.16graph/s]Processing graphs: 100%|█████████▉| 20693/20708 [04:23<00:00, 71.09graph/s]Processing graphs: 100%|█████████▉| 20701/20708 [04:24<00:00, 69.64graph/s]Processing graphs: 100%|██████████| 20708/20708 [04:24<00:00, 78.38graph/s]processing graph data completed
training and testing

FOLD 0
TRAIN: 18637/20708
TEST: 2071/20708

Initialize model
GNN(
  (convs): ModuleList(
    (0): GraphSN(
      (mlp): Sequential(
        (0): Linear(in_features=1461, out_features=64, bias=True)
        (1): Dropout(p=0.25, inplace=False)
        (2): ReLU()
        (3): BatchNorm1d(30, eps=1e-05, momentum=0.1, affine=True, track_running_stats=True)
        (4): Linear(in_features=64, out_features=64, bias=True)
        (5): Dropout(p=0.25, inplace=False)
        (6): ReLU()
        (7): BatchNorm1d(30, eps=1e-05, momentum=0.1, affine=True, track_running_stats=True)
      )
      (linear): Linear(in_features=64, out_features=64, bias=True)
    )
    (1): GraphSN(
      (mlp): Sequential(
        (0): Linear(in_features=64, out_features=64, bias=True)
        (1): Dropout(p=0.25, inplace=False)
        (2): ReLU()
        (3): BatchNorm1d(30, eps=1e-05, momentum=0.1, affine=True, track_running_stats=True)
        (4): Linear(in_features=64, out_features=64, bias=True)
        (5): Dropout(p=0.25, inplace=False)
        (6): ReLU()
        (7): BatchNorm1d(30, eps=1e-05, momentum=0.1, affine=True, track_running_stats=True)
      )
      (linear): Linear(in_features=64, out_features=64, bias=True)
    )
  )
  (instance_projector): Sequential(
    (0): Linear(in_features=1589, out_features=1589, bias=True)
    (1): ReLU()
    (2): Linear(in_features=1589, out_features=1461, bias=True)
  )
  (cluster_projector): Sequential(
    (0): Linear(in_features=1589, out_features=1589, bias=True)
    (1): ReLU()
    (2): Linear(in_features=1589, out_features=21, bias=True)
    (3): Softmax(dim=1)
  )
  (out_proj): Linear(in_features=1589, out_features=21, bias=True)
)
N trainable parameters: 7557400
Sim min: 0.8966659307479858 Sim max: 1.0
ClusterLoss debug: loss_val=3.689171, ne_loss=0.263366, total=3.952537
Train Epoch: 0 [128/18637 (0%)]	Instance Loss: 4.551993	Cluster Loss: 3.952537 	sec/iter: 2.6173
Sim min: 3.8717911365893087e-07 Sim max: 1.0
ClusterLoss debug: loss_val=3.608542, ne_loss=1.431213, total=5.039755
…
