…
:27<00:00, 70.61graph/s]Processing graphs: 100%|█████████▉| 20680/20708 [04:27<00:00, 71.01graph/s]Processing graphs: 100%|█████████▉| 20688/20708 [04:27<00:00, 70.41graph/s]Processing graphs: 100%|█████████▉| 20696/20708 [04:27<00:00, 72.78graph/s]Processing graphs: 100%|█████████▉| 20704/20708 [04:27<00:00, 70.97graph/s]Processing graphs: 100%|██████████| 20708/20708 [04:27<00:00, 77.36graph/s]processing graph data completed
training and testing

FOLD 0
TRAIN: 18637/20708
TEST: 2071/20708

Initialize model
GNN(
  (convs): ModuleList(
    (0): GraphSN(
      (mlp): Sequential(
        (0): Linear(in_features=1461, out_features=64, bias=True)
        (1): Dropout(p=0.25, inplace=False)
        (2): ReLU()
        (3): BatchNorm1d(30, eps=1e-05, momentum=0.1, affine=True, track_running_stats=True)
        (4): Linear(in_features=64, out_features=64, bias=True)
        (5): Dropout(p=0.25, inplace=False)
        (6): ReLU()
        (7): BatchNorm1d(30, eps=1e-05, momentum=0.1, affine=True, track_running_stats=True)
      )
      (linear): Linear(in_features=64, out_features=64, bias=True)
    )
    (1): GraphSN(
      (mlp): Sequential(
        (0): Linear(in_features=64, out_features=64, bias=True)
        (1): Dropout(p=0.25, inplace=False)
        (2): ReLU()
        (3): BatchNorm1d(30, eps=1e-05, momentum=0.1, affine=True, track_running_stats=True)
        (4): Linear(in_features=64, out_features=64, bias=True)
        (5): Dropout(p=0.25, inplace=False)
        (6): ReLU()
        (7): BatchNorm1d(30, eps=1e-05, momentum=0.1, affine=True, track_running_stats=True)
      )
      (linear): Linear(in_features=64, out_features=64, bias=True)
    )
  )
  (instance_projector): Sequential(
    (0): Linear(in_features=1589, out_features=1589, bias=True)
    (1): ReLU()
    (2): Linear(in_features=1589, out_features=1461, bias=True)
  )
  (cluster_projector): Sequential(
    (0): Linear(in_features=1589, out_features=1589, bias=True)
    (1): ReLU()
    (2): Linear(in_features=1589, out_features=21, bias=True)
    (3): LogSoftmax(dim=1)
  )
  (out_proj): Linear(in_features=1589, out_features=21, bias=True)
)
N trainable parameters: 7557400
Mask sum: 1680.0
tensor([[0., 1., 1.,  ..., 1., 1., 1.],
        [1., 0., 1.,  ..., 1., 1., 1.],
        [1., 1., 0.,  ..., 1., 1., 1.],
        ...,
        [1., 1., 1.,  ..., 0., 1., 1.],
        [1., 1., 1.,  ..., 1., 0., 1.],
        [1., 1., 1.,  ..., 1., 1., 0.]])
Cluster probability distribution (p_i): tensor([… device='cuda:0', grad_fn=<AsStridedBackward>)
…
